…
[06/09 10:50:22] ModelNet40Ply2048 INFO: NAME: ballquery
use_xyz: True
normalize_dp: False
radius: 0.4
nsample: 64
[06/09 10:50:22] ModelNet40Ply2048 INFO: NAME: ballquery
use_xyz: True
normalize_dp: False
radius: None
nsample: None
[06/09 10:50:24] ModelNet40Ply2048 INFO: BaseCls(
  (encoder): PointNet2Encoder(
    (SA_modules): ModuleList(
      (0): PointNetSAModuleMSG(
        (local_aggregations): ModuleList(
          (0): LocalAggregation(
            (SA_CONFIG_operator): ConvPool(
              (act): ReLU(inplace=True)
              (convs): Sequential(
                (0): Sequential(
                  (0): Conv2d(6, 64, kernel_size=(1, 1), stride=(1, 1), bias=False)
                  (1): BatchNorm2d(64, eps=1e-05, momentum=0.1, affine=True, track_running_stats=True)
                  (2): ReLU(inplace=True)
                )
                (1): Sequential(
                  (0): Conv2d(64, 64, kernel_size=(1, 1), stride=(1, 1), bias=False)
                  (1): BatchNorm2d(64, eps=1e-05, momentum=0.1, affine=True, track_running_stats=True)
                  (2): ReLU(inplace=True)
                )
                (2): Sequential(
                  (0): Conv2d(64, 128, kernel_size=(1, 1), stride=(1, 1), bias=False)
                  (1): BatchNorm2d(128, eps=1e-05, momentum=0.1, affine=True, track_running_stats=True)
                  (2): ReLU(inplace=True)
                )
              )
              (grouper): QueryAndGroup()
            )
          )
        )
      )
      (1): PointNetSAModuleMSG(
        (local_aggregations): ModuleList(
          (0): LocalAggregation(
            (SA_CONFIG_operator): ConvPool(
              (act): ReLU(inplace=True)
              (convs): Sequential(
                (0): Sequential(
                  (0): Conv2d(131, 128, kernel_size=(1, 1), stride=(1, 1), bias=False)
                  (1): BatchNorm2d(128, eps=1e-05, momentum=0.1, affine=True, track_running_stats=True)
                  (2): ReLU(inplace=True)
                )
                (1): Sequential(
                  (0): Conv2d(128, 128, kernel_size=(1, 1), stride=(1, 1), bias=False)
                  (1): BatchNorm2d(128, eps=1e-05, momentum=0.1, affine=True, track_running_stats=True)
                  (2): ReLU(inplace=True)
                )
                (2): Sequential(
                  (0): Conv2d(128, 256, kernel_size=(1, 1), stride=(1, 1), bias=False)
                  (1): BatchNorm2d(256, eps=1e-05, momentum=0.1, affine=True, track_running_stats=True)
                  (2): ReLU(inplace=True)
                )
              )
              (grouper): QueryAndGroup()
            )
          )
        )
      )
      (2): PointNetSAModuleMSG(
        (local_aggregations): ModuleList(
          (0): LocalAggregation(
            (SA_CONFIG_operator): ConvPool(
              (act): ReLU(inplace=True)
              (convs): Sequential(
                (0): Sequential(
                  (0): Conv2d(259, 256, kernel_size=(1, 1), stride=(1, 1), bias=False)
                  (1): BatchNorm2d(256, eps=1e-05, momentum=0.1, affine=True, track_running_stats=True)
                  (2): ReLU(inplace=True)
                )
                (1): Sequential(
                  (0): Conv2d(256, 512, kernel_size=(1, 1), stride=(1, 1), bias=False)
                  (1): BatchNorm2d(512, eps=1e-05, momentum=0.1, affine=True, track_running_stats=True)
                  (2): ReLU(inplace=True)
                )
                (2): Sequential(
                  (0): Conv2d(512, 1024, kernel_size=(1, 1), stride=(1, 1), bias=False)
                  (1): BatchNorm2d(1024, eps=1e-05, momentum=0.1, affine=True, track_running_stats=True)
                  (2): ReLU(inplace=True)
                )
              )
              (grouper): GroupAll()
            )
          )
        )
      )
    )
  )
  (prediction): ClsHead(
    (head): Sequential(
      (0): Sequential(
        (0): Linear(in_features=1024, out_features=512, bias=False)
        (1): BatchNorm1d(512, eps=1e-05, momentum=0.1, affine=True, track_running_stats=True)
        (2): ReLU(inplace=True)
      )
      (1): Dropout(p=0.5, inplace=False)
      (2): Sequential(
        (0): Linear(in_features=512, out_features=256, bias=False)
        (1): BatchNorm1d(256, eps=1e-05, momentum=0.1, affine=True, track_running_stats=True)
        (2): ReLU(inplace=True)
      )
      (3): Dropout(p=0.5, inplace=False)
      (4): Sequential(
        (0): Linear(in_features=256, out_features=40, bias=True)
      )
    )
  )
  (criterion): SmoothCrossEntropy()
)
[06/09 10:50:24] ModelNet40Ply2048 INFO: Number of params: 1.4726 M
[06/09 10:50:24] ModelNet40Ply2048 INFO: Param groups = {
  "decay": {
    "weight_decay": 0.05,
    "params": [
      "encoder.SA_modules.0.local_aggregations.0.SA_CONFIG_operator.convs.0.0.weight",
      "encoder.SA_modules.0.local_aggregations.0.SA_CONFIG_operator.convs.1.0.weight",
…
